model/model.pth (torch, 16799 bytes, 4 tensors)

linear1.weight f4 [256, 11]
0.35656846 -0.20714362 0.6579894 0.37332302 -0.03734034 0.33304518 -0.083868265 -0.23276433
0.18551451 -0.075071335 0.0887837 -0.06478947 -0.054502647 0.6409115 0.29636526 0.27907225
-0.07036078 -0.33170226 -0.08478405 0.15807785 -0.4037832 -0.49813437 -0.114620976 0.011867749
-0.23344678 0.39116445 -0.33721694 -0.24244855 0.0806585 -0.36161935 -0.30584478 0.3181457
-0.2393896 0.38019264 0.5497449 0.06680655 0.26035088 -0.3493816 -0.33483493 -0.23024383
-0.15802772 0.36766976 0.14223136 0.27694482 -0.2840836 -0.08264463 -0.15603724 -0.534392
-0.004248471 -0.4166625 0.19652213 -0.44651595 0.17842458 -0.6615627 0.02053789 0.06450544
-0.13524331 -0.13755195 0.47483695 -0.53426623 -0.14676596 0.20115289 0.36147836 -0.60194767
-0.412997 -0.52571803 0.53272086 0.03360511 0.12448774 -0.204572 0.20318946 0.40988427
-0.021162502 0.24861081 -0.11086185 -0.34445122 0.21494211 0.23294762 -0.058461033 -0.17622542
-0.11751423 0.07510187 -0.11932927 -0.06260911 -0.16512088 -0.043532703 -0.08743084 -0.13104355
0.35616884 0.13269578 0.29888725 -0.16006392 0.09661809 -0.21932866 0.043849055 0.43628687
0.19775485 0.52111256 0.24077366 0.21100485 -0.005929001 -0.014942932 -0.009302812 0.36311597
-0.44331238 0.0046800585 0.10240872 -0.33486554 0.5301745 -0.32816014 0.22708167 0.23498555
0.3950817 0.06325907 -0.49966693 -0.0046218513 -0.23042847 -0.07365282 0.18918952 0.09558857
0.26064575 -0.10364001 0.059653535 0.09677439 -0.5534935 -0.53409815 0.4651918 0.46549943
-0.5769141 -0.5862883 0.323586 0.38770995 -0.061303567 0.103713885 0.36057338 0.021672603
0.1839733 0.092112705 0.031197662 0.18984891 0.031149516 0.063298054 0.17126508 0.4553644
0.50727695 -0.018501425 0.07787945 -0.18833141 -0.25598338 -0.24059397 0.17018315 0.49449652
-0.027153894 0.48855862 0.3541964 -0.25172463 0.11296245 -0.13103057 -0.1508975 -0.081735
-0.104013786 0.32902429 0.3300447 0.18729182 0.39730012 -0.3762481 0.16907589 0.24982777
-0.11463359 -0.12321124 0.08168953 -0.3372033 0.14164366 -0.026983872 -0.18079038 0.15266396
0.502499 -0.6579177 0.14345631 0.21027723 0.21354127 0.19942875 -0.013250989 -0.17663743
0.12832955 -0.03366724 -0.12619105 0.49568096 0.19980335 -0.5037413 0.29131198 0.004103922
-0.22536315 -0.29788837 -0.14427818 0.11557007 0.2518866 0.38579997 0.11139998 0.22485436
-0.5402158 -0.26563707 0.21491261 -0.262642 0.008714823 0.1779434 -0.17626281 0.2522338
0.041903574 -0.19492829 0.14460233 0.5891205 -0.51386327 0.057446487 -0.34723487 0.043903116
-0.27519938 -0.35357434 -0.1877478 0.43994632 0.5243151 -0.1270723 0.010560443 0.38911113
0.2636012 -0.25593972 -0.12412989 -0.3562373 -0.20718326 0.39475912 0.19199339 0.38762942
-0.42908937 0.6140585 0.13234513 0.017876947 -0.118141524 -0.14188983 -0.37785867 -0.07669255
0.29982617 0.28514558 -0.0933208 -0.041418623 -0.26004517 -0.2977452 0.28089514 -0.13528436
0.099635415 -0.29995275 -0.30258265 0.14753768 -0.23791996 -0.10352103 -0.42587027 -0.30975378
00000000: 2490 b63e 751d 54be fe71 283f 3224 bf3e
00000010: 2ff2 18bd e684 aa3e 20c3 abbd c659 6ebe
00000020: 84f7 3d3e 00bf 99bd 3ad4 b53d 57b0 84bd
00000030: 2b3e 5fbd c712 243f 30bd 973e 8fe2 8e3e
00000040: 5019 90bd e1d4 a9be 43a3 adbd 29df 213e
00000050: acbc cebe 780b ffbe 67be eabd f270 423c
00000060: ac0c 6fbe b546 c83e b3a7 acbe 6f44 78be
00000070: 4930 a53d 2c26 b9be b097 9cbe fee3 a23e
00000080: 8c22 75be 9ca8 c23e 15bc 0c3f dfd1 883d
00000090: b64c 853e 25e2 b2be 7c6f abbe 0ac5 6bbe
000000a0: 05d2 21be 363f bc3e 19a5 113e b6cb 8d3e
000000b0: 6873 91be 9641 a9bd 3ac8 1fbe eacd 08bf
000000c0: c236 8bbb ca54 d5be 193d 493e bd9d e4be
000000d0: efb4 363e 2c5c 29bf 143f a83c 6e1b 843d
000000e0: 397d 0abe 6bda 0cbe d41d f33e acc5 08bf
000000f0: d149 16be 06fb 4d3e b113 b93e 3e19 1abf
00000100: 5874 d3be 7595 06bf 6560 083f 83a5 093d
00000110: 6ef3 fe3d 537b 51be e610 503e 5adc d13e
00000120: fc5c adbc d593 7e3e 8a0b e3bd e95b b0be
00000130: c919 5c3e d289 6e3e d674 6fbd 7074 34be
00000140: 4dab f0bd 02cf 993d e862 f4bd 3439 80bd
00000150: 7315 29be 594f 32bd f10e b3bd 4830 06be
00000160: c35b b63e 67e1 073e c007 993e cce7 23be
00000170: b5df c53d b197 60be 119b 333d fe60 df3e
00000180: 3f80 4a3e a267 053f 5f8d 763e a811 583e
00000190: 1148 c2bb 33d3 74bc d26a 18bc 56ea b93e
000001a0: d7f9 e2be 2d5b 993b aabb d13d 7f73 abbe
000001b0: 84b9 073f 9b04 a8be 1988 683e 0da0 703e
000001c0: 2648 ca3e f98d 813d 58d4 ffbe e672 97bb
000001d0: 71f5 6bbe 4ad7 96bd e6ba 413e f1c3 c33d
000001e0: 5c73 853e 3741 d4bd 4457 743d a731 c63d
000001f0: c0b1 0dbf a8ba 08bf 9f2d ee3e f155 ee3e
00000200: a4b0 13bf fd16 16bf 10ad a53e eb81 c63e
00000210: 7319 7bbd f267 d43d 139d b83e be8a b13c
00000220: 7f63 3c3e 96a5 bc3d 3d92 ff3c c167 423e
00000230: 452d ff3c 69a2 813d 1d60 2f3e 8625 e93e
00000240: e7dc 013f 4d90 97bc 437f 9f3d f3d9 40be
00000250: 4110 83be 445e 76be 7e44 2e3e a62e fd3e
00000260: d871 debc 5b24 fa3e 3b59 b53e 0de2 80be
00000270: db58 e73d e12c 06be e084 1abe ae64 a7bd
00000280: 2e05 d5bd df75 a83e 9efb a83e 6dc9 3f3e
00000290: ec6a cb3e 97a3 c0be 3b22 2d3e dad2 7f3e
000002a0: 04c5 eabd 2d56 fcbd d74c a73d e9a5 acbe
000002b0: 090b 113e 480d ddbc 1d21 39be f153 1c3e
000002c0: c6a3 003f 4b6d 28bf 36e6 123e ea52 573e
000002d0: 90aa 5a3e 0d37 4c3e ad1a 59bc 71e0 34be
000002e0: d268 033e a9e6 09bd 3a38 01be e5c9 fd3e
000002f0: 4099 4c3e 31f5 00bf d826 953e 317a 863b
00000300: 99c5 66be d384 98be a9bd 13be 00b0 ec3d
00000310: 48f7 803e 9387 c53e ac25 e43d 3940 663e
00000320: 954b 0abf 9501 88be 0d12 5c3e 0379 86be
00000330: 9ec8 0e3c cb36 363e 3d7e 34be ca24 813e
00000340: 15a3 2b3d 489b 47be a212 143e 9ad0 163f
00000350: 8b8c 03bf 024d 6b3d c5c8 b1be c1d3 333d
00000360: efe6 8cbe b207 b5be f640 40be a540 e13e
00000370: 8439 063f 3e1f 02be b505 2d3c 9339 c73e
00000380: bdf6 863e 880a 83be d037 febd bc64 b6be
00000390: d927 54be de1d ca3e ea99 443e 5d77 c63e
000003a0: 9ab1 dbbe f032 1d3f 7b85 073e ad72 923c
000003b0: 2ff4 f1bd 914b 11be b176 c1be fc10 9dbd
000003c0: d182 993e 9afe 913e fa1e bfbd 93a6 29bd
000003d0: a424 85be 0f72 98be 7dd1 8f3e fc87 0abe
000003e0: a70d cc3d 6893 99be 1dec 9abe 1e14 173e
000003f0: 4aa1 73be d502 d4bd ab0b dabe 0c98 9ebe

linear1.bias f4 [256]
-0.18252116 0.1236519 -0.12832093 -0.0805891 0.4729537 0.08390663 -0.13309892 -0.27076
-0.28856158 -0.04784468 -0.15024601 0.114098184 -0.19800591 -0.29746112 -0.28807992 -0.4253724
-0.2116394 -0.16009511 -0.176696 0.14019805 -0.09054673 0.009679842 0.059778504 -0.003158464
0.016556432 0.03182738 -0.48144504 -0.23771012 -0.22097753 0.0014082696 -0.17825502 0.19891286
-0.06318678 -0.1524398 -0.22442387 -0.09063718 -0.22843742 -0.038412146 -0.08851336 -0.27960542
-0.055333566 -0.09819549 0.23121937 -0.10787812 0.0809815 0.2732652 -0.26279107 0.21029067
0.13843673 -0.21456432 0.5761126 0.06670279 0.1637961 -0.021660097 -0.28277332 -0.23077539
-0.29464865 -0.19051513 -0.16717897 -0.16765513 -0.009910167 0.03718026 -0.39151227 0.005730138
-0.055838086 -0.120763674 0.38111678 0.12157716 -0.21039583 -0.036292545 0.11841117 -0.17194067
0.0032979585 0.008219746 -0.33831447 0.15604772 -0.039539505 -0.26339445 -0.03257464 -0.10187756
0.2551663 -0.4000511 -0.28754333 -0.14622733 -0.37989104 -0.36501592 -0.07404618 0.3572814
0.43885207 0.044106197 -0.28765064 -0.14965019 0.25700292 -0.022365859 0.059863955 -0.053541772
-0.009548354 0.19773494 -0.15000483 0.08944458 -0.12124759 0.26152346 0.0120265465 -0.38801864
-0.3864481 -0.16160585 -0.30166993 0.048326887 0.13394159 -0.22683384 -0.30833393 0.19260237
-0.20990178 -0.4727709 0.018347878 0.15495951 -0.04993519 0.10251963 -0.05829843 -0.11711175
-0.163794 0.22196066 -0.30610958 0.21475372 -0.3122561 -0.17045674 -0.31006747 -0.04025176
-0.33110094 -0.028177042 -0.2627988 -0.24955592 -0.1414509 0.0733579 -0.45929185 -0.12593976
-0.14154829 0.4051941 -0.25590515 -0.13774127 -0.19135426 -0.33601394 -0.2807722 -0.05543403
0.24005833 0.55060285 0.13419534 -0.14717638 -0.22056764 -0.23127025 0.14838783 -0.4433448
0.17610691 -0.083179705 0.36912763 -0.0911409 -0.03991276 -0.30131516 0.049109537 0.062093843
-0.07715793 -0.024858842 0.087177105 0.07589017 -0.23695257 0.03485544 -0.07020589 0.022284545
-0.10571468 -0.20778733 -0.28687507 -0.20709522 -0.030570837 0.563877 -0.10088321 -0.10166139
0.31279278 -0.37150994 0.39967898 -0.19982266 -0.30312032 0.12060138 -0.23755737 -0.2512112
-0.06341665 -0.27584147 -0.04330232 -0.04396914 -0.2756827 0.30585033 0.037416287 -0.20779508
-0.07264823 -0.2899014 0.08894142 -0.25741976 -0.052569106 -0.16632037 -0.14000617 0.14309138
0.030571746 -0.20051165 -0.21927536 -0.27051386 -0.17109534 0.0651947 0.38767168 0.18781367
-0.20068838 0.21393766 -0.25445524 0.014521374 -0.2363629 0.12794967 -0.13724585 -0.21251154
-0.23121925 -0.051019587 -0.16317497 0.39544058 -0.16408572 -0.3440287 0.46942356 -0.19780098
0.0995168 0.22213018 0.0011783948 -0.007575995 0.010757526 -0.24739483 -0.051780906 -0.037387975
-0.1003595 -0.1297242 0.24095379 -0.38238662 -0.22803546 -0.052592907 0.15487221 -0.13958852
-0.32274204 -0.15465088 -0.23144296 -0.3526375 0.25056612 -0.4616504 0.13600107 -0.035742365
-0.0013191546 0.09858102 -0.06820685 0.09507582 -0.27233392 0.23876093 -0.037587482 0.3108789
00000000: d4e6 3abe 353d fd3d 9066 03be e60b a5bd
00000010: fd26 f23e 3dd7 ab3d 154b 08be 0ea1 8abe
00000020: 58be 93be c8f8 43bd 17da 19be 4fac e93d
00000030: 10c2 4abe d34c 98be 367f 93be 69ca d9be
00000040: 00b8 58be f9ef 23be ccef 34be 1490 0f3e
00000050: 9070 b9bd 3398 1e3c 4eda 743d 3cfe 4ebb
00000060: 5ba1 873c 6d5d 023d f77f f6be 486a 73be
00000070: ef47 62be b095 b83a 7c88 36be d0af 4b3e
00000080: 1268 81bd 2e19 1cbe 5fcf 65be fc9f b9bd
00000090: 80eb 69be 0e56 1dbd 7e46 b5bd 7128 8fbe
000000a0: 73a5 62bd b81a c9bd c5c4 6c3e 34ef dcbd
000000b0: a1d9 a53d 6be9 8b3e 8d8c 86be 7056 573e
000000c0: 5cc2 0d3e c0b6 5bbe 1e7c 133f 799b 883d
000000d0: 2aba 273e 8470 b1bc aac7 90be 6250 6cbe
000000e0: 30dc 96be 6616 43be f730 2bbe c9ad 2bbe
000000f0: 415e 22bc 544a 183d 4c74 c8be e2c3 bb3b
00000100: 7ab6 64bd f252 f7bd bd21 c33e 72fd f83d
00000110: 0172 57be 7ea7 14bd 8e81 f23d 3711 30be
00000120: 9022 583b 1dac 063c 8e37 adbe f9ca 1f3e
00000130: 2df4 21bd a3db 86be fc6c 05bd 2fa5 d0bd
00000140: 28a5 823e 7fd3 ccbe e138 93be 9ebc 15be
00000150: 1481 c2be 5ee3 babe 86a5 97bd 96ed b63e
00000160: 38b1 e03e b3a8 343d f246 93be e63d 19be
00000170: e395 833e 9b38 b7bc e833 753d 9e4e 5bbd
00000180: b370 1cbc 077b 4a3e de9a 19be b82e b73d
00000190: a850 f8bd 67e6 853e fe0a 453c 61aa c6be
000001a0: 86dc c5be 017c 25be 7b74 9abe 6af2 453d
000001b0: fc27 093e 2147 68be f2dd 9dbe 8e39 453e
000001c0: 7ef0 56be 070f f2be 4a4e 963c b5ad 1e3e
000001d0: d788 4cbd d0f5 d13d 56ca 6ebd 49d8 efbd
000001e0: 9db9 27be a849 633e 65ba 9cbe 66e8 5b3e
000001f0: 08e0 9fbe 368c 2ebe 2ac1 9ebe 08df 24bd
00000200: 1086 a9be 8ad3 e6bc 908d 86be 968b 7fbe
00000210: 81d8 10be ab3c 963d 4d28 ebbe 5af6 00be
00000220: 09f2 10be 9a75 cf3e 0006 83be 0c0c 0dbe
00000230: 5ff2 43be 050a acbe 60c1 8fbe cb0e 63bd
00000240: dad1 753e 4ff4 0c3f 816a 093e 68b5 16be
00000250: 7cdc 61be 1cd2 6cbe fbf2 173e 17fe e2be
00000260: 5f55 343e 1f5a aabd 4cfe bc3e 15a8 babd
00000270: 907b 23bd fb45 9abe 1527 493d 1d56 7e3d
00000280: fa04 9ebd c5a4 cbbc e989 b23d 4e6c 9b3d
00000290: b2a3 72be 94c4 0e3d 1bc8 8fbd 148e b63c
000002a0: f080 d8bd 34c6 54be 4ae1 92be c510 54be
000002b0: b16f fabc 3e5a 103f db9b cebd d933 d0bd
000002c0: 6026 a03e 8d36 bebe b9a2 cc3e 509e 4cbe
000002d0: 9632 9bbe dbfd f63d 3d42 73be c19e 80be
000002e0: 97e0 81bd 183b 8dbe c65d 31bd fc18 34bd
000002f0: 4826 8dbe 6a98 9c3e d241 193d 3cc8 54be
00000300: 98c8 94bd f56d 94be eb26 b63d 86cc 83be
00000310: b452 57bd e34f 2abe c75d 0fbe 8c86 123e
00000320: 9971 fa3c ed52 4dbe b889 60be cb80 8abe
00000330: 9e33 2fbe cd84 853d e77c c63e 3a52 403e
00000340: 4181 4dbe 7912 5b3e f547 82be 0feb 6d3c
00000350: 1e09 72be 3d05 033e 2d8a 0cbe a09c 59be
00000360: bdc4 6cbe eaf9 50bd 5717 27be 3077 ca3e
00000370: 1606 28be 8824 b0be 4958 f03e 578c 4abe
00000380: 77cf cb3d 1876 633e 5e74 9a3a 0d40 f8bb
00000390: 5640 303c 1255 7dbe 3718 54bd 2224 19bd
000003a0: 4889 cdbd 6cd6 04be 97bc 763e 2ec8 c3be
000003b0: 2182 69be a96b 57bd d296 1e3e 4bf0 0ebe
000003c0: 723e a5be cd5c 1ebe 62ff 6cbe e78c b4be
000003d0: 344a 803e 715d ecbe dd43 0b3e 9666 12bd
000003e0: 7ce7 acba d9e4 c93d 08b0 8bbd 1db7 c23d
000003f0: 5a6f 8bbe bf7d 743e 55f5 19bd 852b 9f3e

linear2.weight f4 [3, 256]
-0.1680108 0.38383052 -0.31772488 -0.23955888 0.44536304 0.41223714 -0.4208447 0.058692396
-0.2492845 -0.4761952 -0.08611953 0.6076341 -0.004042657 -0.22738676 -0.10856606 0.18309522
0.036345705 -0.33199888 -0.05747239 0.31027663 -0.5196673 -0.08873371 -0.07703774 0.14039546
0.037682734 0.35285398 -0.16573796 0.015761651 -0.07843727 0.3607974 -0.21943983 0.050176505
-0.1922967 -0.15518463 0.025637545 -0.027823137 -0.014501902 0.38418728 -0.17291038 -0.11125152
-0.4155404 -0.01132308 0.07132602 -0.21448079 0.007365485 0.104573466 -0.2548698 0.5060147
0.07596024 -0.0032734503 0.45537075 0.037130922 0.24134536 0.17088701 -0.13197419 0.047444887
0.019965315 -0.24829805 -0.59988743 -0.414718 0.04763403 0.1574832 -0.42947492 0.2995572
0.05470952 0.0856907 0.22820951 0.22992669 -0.19880569 -0.019264597 0.3100872 -0.004371409
0.038953286 0.24079967 0.006433216 0.45915872 0.29880103 -0.21984816 -0.5690136 0.3155837
0.38051066 -0.12172785 -0.020037867 -0.013746649 -0.02456729 -0.08345092 0.036943365 0.274219
0.24015917 -0.3567609 -0.0018945634 -0.52826196 -0.030718394 -0.11798284 0.3604566 -0.036576584
0.37102097 0.12322656 -0.4252426 0.3097707 0.27098835 0.1746262 0.08038634 9.934647e-05
0.030878909 -0.09825785 -0.047787774 0.46268758 -0.31835952 -0.024325771 -0.3458911 0.30415067
0.038647797 -0.14664838 -0.5587555 0.21414681 0.04173784 0.08410199 0.1718074 -0.47071025
-0.096556425 0.061050933 -0.44209412 0.25454783 -0.44729683 -0.07970248 -0.06005817 -0.22937717
-0.5247162 0.17865357 -0.4599977 -0.12643683 -0.17732407 -0.035191108 0.018757312 -0.014048677
0.041467298 0.29192647 0.026991291 0.104579225 -0.10808461 0.0071868533 -0.08554634 -0.11421612
0.4408325 0.1853899 -0.4157117 0.29816082 -0.08298171 0.07442494 0.08476763 -0.12144953
0.08900458 0.40306848 0.3644562 -0.4444115 0.13768296 -0.16047071 0.55613905 -0.5258529
-0.30526823 -0.3048811 0.037791662 0.04130087 -0.19142386 -0.40565166 0.22452879 0.18352233
0.016753778 -0.38336736 -0.29755577 -0.030569896 0.5773248 0.4311727 -0.27788672 0.0244137
0.1822814 0.047178827 0.15139715 -0.40425515 0.023241077 0.21131545 0.2761275 -0.03908342
-0.30807716 -0.20304672 -0.080810905 -0.0236445 -0.016522247 0.107258454 -0.39989454 -0.46370077
-0.16907285 -0.3218172 -0.004809082 -0.06347443 -0.0787185 -0.2603965 -0.29568082 0.09404352
-0.1386695 -0.11732077 -0.24490279 -0.001190126 -0.18780893 0.24695413 0.31437534 0.21329147
-0.0060337787 0.2747324 -0.14673479 0.30033973 -0.10578025 0.41602138 -0.002955797 0.08957727
-0.022712203 -0.04427354 -0.49035525 0.2531801 -0.2632669 -0.23890899 0.21468112 -0.6575767
-0.12519301 0.3906095 0.26846212 -0.14631224 0.082808465 -0.5373496 0.046192728 0.1371913
0.15579207 0.27558088 0.45756546 0.0056527806 -0.33581915 -0.0031517379 0.37119848 -0.5088502
-0.18675728 0.26481074 -0.025948508 -0.15463059 0.14335755 -0.24388759 0.099894896 -0.778021
-0.5758607 0.009502371 -1.1123507 0.21867892 -0.07894208 -0.018400049 0.027757853 0.42428496
00000000: 060b 2cbe 6f85 c43e d6ac a2be ec4e 75be
00000010: a006 e43e bf10 d33e f578 d7be 7067 703d
00000020: 7044 7fbe dbcf f3be 705f b0bd e98d 1b3f
00000030: 4478 84bb 13d8 68be e257 debd 507d 3b3e
00000040: 3cdf 143d c2fb a9be 2b68 6bbd 94dc 9e3e
00000050: eb08 05bf 05ba b5bd f6c5 9dbd d4c3 0f3e
00000060: 3659 1a3d 47a9 b43e 36b7 29be 941e 813c
00000070: b8a3 a0bd 70ba b83e d6b4 60be e185 4d3d
00000080: 6de9 44be b8e8 1ebe d405 d23c 59ed e3bc
00000090: 6399 6dbc 32b4 c43e 6b0f 31be d6d7 e3bd
000000a0: b6c1 d4be 7184 39bc 6013 923d daa0 5bbe
000000b0: 2b5a f13b 9d2a d63d 4b7e 82be 2e8a 013f
000000c0: 0b91 9b3d 6287 56bb 5b26 e93e 9816 183d
000000d0: 3d23 773e 01fd 2e3e 3e24 07be 9255 423d
000000e0: 4d8e a33c d841 7ebe 3992 19bf eb55 d4be
000000f0: e71b 433d 4743 213e 23e4 dbbe 905f 993e
00000100: 1717 603d 9b7e af3d c1af 693e e771 6b3e
00000110: b893 4bbe cad0 9dbc c0c3 9e3e 093e 8fbb
00000120: 7b8d 1f3d 3094 763e bacd d23b da16 eb3e
00000130: 73fc 983e e01f 61be e0aa 11bf 3094 a13e
00000140: 4bd2 c23e 734c f9bd 7426 a4bc a039 61bc
00000150: 5741 c9bc 51e8 aabd ed51 173d 6f66 8c3e
00000160: 49ec 753e 5da9 b6be 0053 f8ba 2d3c 07bf
00000170: 24a5 fbbc fda0 f1bd c48d b83e 54d1 15bd
00000180: 76f6 bd3e 355e fc3d 66b9 d9be 449a 9e3e
00000190: fcbe 8a3e 36d1 323e 98a1 a43d 3b58 d038
000001a0: c4f5 fc3c 693b c9bd 1dbd 43bd 63e5 ec3e
000001b0: 0500 a3be d746 c7bc a318 b1be a3b9 9b3e
000001c0: 274d 1e3d fe2a 16be 9a0a 0fbf 4d49 5b3e
000001d0: 4cf5 2a3d aa3d ac3d 47ee 2f3e ef00 f1be
000001e0: 60bf c5bd 8b10 7a3d 295a e2be 1854 823e
000001f0: 1704 e5be 0e3b a3bd 8eff 75bd d9e1 6abe
00000200: cd53 06bf f6f0 363e d284 ebbe a878 01be
00000210: 7194 35be 8d24 10bd efa8 993c 6c2c 66bc
00000220: 9dd9 293d 6377 953e d71c dd3c a22d d63d
00000230: 775b ddbd b27f eb3b eb32 afbd 24ea e9bd
00000240: ccb4 e13e dad6 3d3e 2ad8 d4be 89a8 983e
00000250: 51f2 a9bd 1a6c 983d a79a ad3d 88ba f8bd
00000260: 0948 b63d fe5e ce3e 019a ba3e e789 e3be
00000270: c3fc 0c3e 6f52 24be 215f 0e3f 4c9e 06bf
00000280: 1e4c 9cbe 6019 9cbe 6ecb 1a3d 1a2b 293d
00000290: 9e04 44be 93b1 cfbe e0ea 653e 47ed 3b3e
000002a0: 383f 893c ba48 c4be 3b59 98be b86d fabc
000002b0: 8fcb 133f abc2 dc3e 2b47 8ebe 3dff c73c
000002c0: faa7 3a3e 963e 413d db07 1b3e 88fa cebe
000002d0: 1264 be3c 1463 583e 9560 8d3e f015 20bd
000002e0: 4abc 9dbe 7beb 4fbe 3080 a5bd 1cb2 c1bc
000002f0: aa59 87bc 52aa db3d fabe ccbe 306a edbe
00000300: 6f21 2dbe 39c5 a4be 8195 9dbb e2fe 81bd
00000310: 2a37 a1bd b152 85be 7a63 97be e499 c03d
00000320: 61ff 0dbe df45 f0bd ccc7 7abe 00fe 9bba
00000330: fc50 40be 8be1 7c3e cef5 a03e 1469 5a3e
00000340: 01b7 c5bb baa9 8c3e a541 16be 21c6 993e
00000350: 51a3 d8bd c100 d53e 0bb6 41bb 4a74 b73d
00000360: f10e babc 2c58 35bd d80f fbbe d2a0 813e
00000370: ebca 86be 8fa4 74be 5ed5 5b3e f256 28bf
00000380: 9932 00be f8fd c73e de73 893e e0d2 15be
00000390: 7c97 a93d be8f 09bf 9634 3d3d e07b 0c3e
000003a0: f587 1f3e f018 8d3e 0546 ea3e f63a b93b
000003b0: 7df0 abbe 638d 4ebb ba0d be3e 0244 02bf
000003c0: 4d3d 3fbe 4695 873e f791 d4bc 7b57 1ebe
000003d0: 52cc 123e abbd 79be b295 cc3d 622c 47bf
000003e0: 9b6b 13bf d5af 1b3c 8261 8ebf 5eed 5f3e
000003f0: 63ac a1bd b3bb 96bc 7064 e33c e13b d93e

linear2.bias f4 [3]
0.25406504 0.06298542 0.015141606
00000000: d014 823e 80fe 803d 8014 783c
